model.pth (torch, 130944 bytes, 4 tensors)

fc1.weight f4 [512, 42]
000000 7e c6 00 3f cf be 02 3e 46 c1 fe 3e 85 3c 9c 3e
       0.50302875 0.127681 0.4975683 0.30514923
000010 b3 d6 de 3e 50 53 27 3e f9 ce 27 3e 96 de ea 3d
       0.43523178 0.16340375 0.16387548 0.11468236
000020 e2 1b e0 bd a5 e7 19 be ed b2 44 3e de 5e 60 3e
       -0.10942818 -0.15029772 0.1920888 0.21911189
000030 3b 6d fa be 78 95 92 3e 12 dc 25 bf ef f5 13 3e
       -0.4891146 0.2862966 -0.64788926 0.14449285
000040 e2 7e 4b bf 4a 90 24 3e 48 5b 47 3e a2 0a 48 3e
       -0.7949048 0.16070667 0.19468415 0.19535306
000050 61 8c 6c be d9 be 46 be 21 b7 6e 3e eb 8f 86 3d
       -0.23100425 -0.1940874 0.23312046 0.06570419
000060 c5 66 22 3e ce c3 67 3d 8e 40 1b 3e ab f5 b0 3d
       0.15859516 0.05658322 0.15161344 0.086406074
000070 b3 da ec bd ee a9 5d be f7 e0 cc bd a0 a4 a2 bc
       -0.11565151 -0.21646854 -0.10003846 -0.01985389
000080 a2 cb 0e 3e 6d c5 e4 bd e5 0d 8d bd 72 9a 1f be
       0.13944867 -0.111704685 -0.06887416 -0.1558626
000090 6f f9 12 bd 7d 13 05 be 6d fa b3 3d 30 d9 2a 3d
       -0.03588241 -0.12995715 0.08787999 0.041711032
0000a0 d6 10 91 3e c2 78 08 be 53 58 0c be b9 4c d6 bd
       0.28333157 -0.13327315 -0.13705568 -0.104638524
0000b0 20 f9 91 3c 7a e6 3f be 3f 9f 86 3d 47 2b aa 3a
       0.017818987 -0.18740264 0.065733425 0.0012982868
0000c0 64 a3 80 3d e2 5a 11 3e 5c 53 40 3e 87 c6 75 3e
       0.06281164 0.14194825 0.18781799 0.24001513
0000d0 e4 50 08 3e 94 5c 04 3d 5d da 9d 3e 7b 44 de bd
       0.13312107 0.032314852 0.3083066 -0.10852905
0000e0 23 6d 57 3e 13 27 ed be d9 90 f7 bd eb c8 2b bf
       0.21037726 -0.46318874 -0.120881744 -0.6710345
0000f0 cd 87 88 bc 31 e4 3b be 16 50 07 3e 35 ff a2 3d
       -0.016666317 -0.18348767 0.13214144 0.07958833
000100 42 90 32 be 24 ed a3 3e 25 b8 8c be a7 c7 f7 3c
       -0.17437842 0.3201686 -0.2748424 0.030246569
000110 af a4 02 3e 2b 3f 4c 3d 0a ab 96 3d 0d 20 88 3e
       0.12758134 0.04986493 0.07356842 0.26586953
000120 fd 40 27 be 0a 55 cb 3e b9 db d5 be 27 f4 41 3e
       -0.16333385 0.39713317 -0.41769198 0.18940793
000130 4c c2 65 be 23 28 95 3d 9b 24 a5 be c7 50 a3 3e
       -0.224374 0.07283046 -0.3225449 0.31897566
000140 e2 fb 9e be 5e ce 03 3f f4 c7 2f bf 13 ee 0b 3f
       -0.31051546 0.51486766 -0.6866448 0.5466015
000150 d8 0a ba bc 06 7d 96 3d 86 7e 84 3d b4 4e 28 bd
       -0.022710249 0.07348065 0.06469445 -0.041090682
000160 46 d5 da 3d 70 d3 e9 bc 00 6d 59 bb 30 49 90 3c
       0.1068521 -0.028543204 -0.0033176541 0.017613024
000170 76 28 ac bd f9 97 a5 bd c0 ba 0e 3d 08 23 17 be
       -0.08406155 -0.08085627 0.034846067 -0.14759457
000180 7e cf dc 3d 2a 6f 84 3d a6 83 b4 bd 32 b2 e1 3d
       0.107817635 0.06466515 -0.088141724 0.11020316
000190 3e b4 0a be 43 bd aa bd c9 61 fe bd e4 31 16 3d
       -0.1354532 -0.0833688 -0.12420995 0.036668673
0001a0 29 18 1b be bd bc 0e be b6 81 d9 3d 7c 36 c9 bd
       -0.15145935 -0.13939185 0.106204435 -0.09824845
0001b0 3d 85 12 be df a3 03 be 30 67 42 3d 9e e4 f0 3d
       -0.14308639 -0.1285548 0.04746169 0.11762355
0001c0 1b 04 17 3e 00 35 88 3c 00 78 70 bc 9e 0c a4 3d
       0.1474766 0.016626835 -0.014677048 0.08010219
0001d0 80 58 f3 3a d5 e5 13 3e 54 85 f0 bd 00 b3 22 bb
       0.0018565804 0.14443143 -0.1174418 -0.002482593
0001e0 ac 15 46 3d 84 a1 00 bd b4 95 cc bd 67 55 05 be
       0.04836051 -0.031404033 -0.09989491 -0.1302086
0001f0 a0 63 08 bc 1f 10 01 be f5 c2 8e 3e 45 3c 3a be
       -0.008324534 -0.12603806 0.27883115 -0.18187054
000200 a6 81 82 3e 68 03 23 be d8 13 84 bc 7b c2 c8 bd
       0.2548954 -0.15919268 -0.016122743 -0.09802719
000210 c1 d6 fe bc 61 52 c9 3b c7 d0 e4 bd fc 98 bc be
       -0.031108262 0.0061438535 -0.111726336 -0.36835468
000220 74 c9 b8 3e 7c 41 13 3d f2 38 9d 3e 51 f2 a3 bd
       0.36091197 0.035951123 0.30707508 -0.080052026
000230 36 4b b3 3e 7b 75 1b 3e 14 e0 51 3e 43 c6 c6 3d
       0.3501832 0.15181534 0.20495635 0.09705784
000240 cc 27 1f 3e 78 0a 56 be d8 d0 88 3e 6b 17 90 3d
       0.15542525 -0.20902431 0.26721835 0.070357166
000250 5b 5b c5 bd 77 9e 2d 3e be 2e 1a be 9e c2 e9 3e
       -0.09636565 0.16954981 -0.15056893 0.45656294
000260 91 63 2e 3e 99 3d 20 bc 18 8e 4d 3e 36 df 3d be
       0.17030169 -0.009780311 0.20073736 -0.1854218
000270 c1 fc a8 3d 7b f4 a4 3d f6 78 b1 3e 28 77 43 3e
       0.08251334 0.080544434 0.34662598 0.19088423
000280 c2 d4 d7 3d 1d dd 7b be 02 63 6e 3e 45 4a ff bd
       0.10538627 -0.24596067 0.23279956 -0.12465338
000290 1a 0a 30 3e f3 da e8 bd ce 2e bb 3e 71 1a 48 be
       0.17191353 -0.11369886 0.36559147 -0.19541337
0002a0 f2 67 84 3e 5a c2 9e 3e 8d f6 5e 3e 97 7e 9e 3e
       0.25860554 0.31007653 0.21773739 0.30955955
0002b0 b2 26 fe 3d 9b 3d 66 bd 89 c1 ed bb a5 ae 26 bc
       0.12409724 -0.056211095 -0.007255737 -0.010173474
0002c0 36 3a de be 74 e3 08 be 11 3d a8 3e ce 48 88 3c
       -0.43403786 -0.13368016 0.3285909 0.016636278
0002d0 73 73 67 3d ac af 96 be 3f dc 99 3e a6 ed bb be
       0.056506585 -0.29430902 0.30050847 -0.3670475
0002e0 fa 1f 83 3e 38 c1 f3 be 0a 9d ae 3e d7 1d 62 bd
       0.25610334 -0.47608352 0.34104186 -0.05520424
0002f0 47 4a 37 3e 8f c1 b0 bd 7b d0 08 3b a4 d7 a9 be
       0.17899428 -0.08630668 0.0020876217 -0.33172333
000300 16 e6 04 bf d6 92 0f bf f0 6c c8 3e d1 76 63 3d
       -0.51913583 -0.5608343 0.39145613 0.055533234
000310 21 93 33 3d 5a 6b da bd 70 25 44 3e 4a 97 27 be
       0.043841485 -0.10665007 0.19154906 -0.16366306
000320 f3 f5 3e 3e f6 a5 e0 bd dc 85 bb 3e 4d 95 27 3e
       0.1864851 -0.109691545 0.36625564 0.16365547
000330 64 22 eb 3d 10 43 a3 3e 69 89 95 3e 87 78 39 3e
       0.11481169 0.31887102 0.29206398 0.18112384
000340 a1 ac a6 3e 3f 31 02 3f e6 db cc bd 29 f4 3a bd
       0.3255358 0.50856394 -0.1000288 -0.045643006
000350 d7 e2 92 bd 35 a7 d9 bd dc 60 ff bd ac a3 11 bd
       -0.071721725 -0.10627595 -0.12469646 -0.03555648
000360 5c d0 94 3d e9 87 39 bd 9d 6c 42 bc 33 72 52 3d
       0.07266304 -0.04529563 -0.011866716 0.05137844
000370 ce f4 2b be ef b1 e9 3d 25 5f 2e 3d c8 99 e5 bc
       -0.16792604 0.11410891 0.042571206 -0.02802743
000380 f4 21 83 3d ff b0 bb 3d e3 b4 ba bd 34 41 b0 3d
       0.064029604 0.09164619 -0.09116533 0.086061865
000390 ce f0 d8 bd f9 45 cf bd c1 5e bf 3d 45 80 39 bc
       -0.10592805 -0.10120768 0.09344245 -0.011322086
0003a0 3f 05 27 be 7e 24 04 3e 47 94 a0 3c 0c f4 fd 3d
       -0.16310595 0.12904546 0.019601954 0.12400064
0003b0 c0 23 10 be 94 01 03 be 5f 51 ee bd a5 7c b6 bd
       -0.14076138 -0.12793571 -0.11636614 -0.08910493
0003c0 3d 00 ae 3d 8f c1 a0 bc f8 23 e8 bd 63 2c 19 3d
       0.08496139 -0.019623546 -0.113349855 0.037395846
0003d0 13 26 9b bc 79 b4 2c be 29 3f 11 be e1 a7 2a bd
       -0.018939054 -0.1686572 -0.1418425 -0.041664008
0003e0 cd 8e fd 3d 48 b8 66 3d ee b6 cc 3d 03 c7 c0 bd
       0.12380753 0.056328088 0.099958286 -0.094129585
0003f0 64 74 3f 3d 67 85 a2 bd 84 33 07 3d 85 4a 09 be
       0.046741858 -0.07935601 0.033008114 -0.13407333

fc1.bias f4 [512]
000000 51 99 4c bd e6 10 e5 3d 80 62 92 bc 22 56 0a bd
       -0.0499509 0.11184864 -0.017869234 -0.03377355
000010 6a 30 43 3a 00 ae 6d 3c 21 6b 01 be ff 86 09 3e
       0.0007445874 0.014506817 -0.12638523 0.13430403
000020 4c 07 67 bd f7 e6 96 be 5e e0 f6 3d e8 c8 84 be
       -0.056403443 -0.29473087 0.120545134 -0.2593453
000030 ba ba 2f 3e 4d 3e 06 3e 6e 94 8b be e9 3a dc 3d
       0.17161074 0.13109703 -0.2726168 0.10753424
000040 71 5a e9 3c 68 53 af be 7a f3 a2 3d 18 f9 04 be
       0.028485509 -0.3424332 0.07956596 -0.12985647
000050 13 77 e7 bc 2c 17 ea bd 25 64 0b be 80 7b 88 3d
       -0.028255021 -0.11430201 -0.13612421 0.06664181
000060 c0 8e a2 3e 2c 93 02 be 2f 8e da 3d 32 f9 57 3d
       0.31749535 -0.12751454 0.106716506 0.052727886
000070 ce 2d c5 3d d4 92 79 3d d0 a8 36 3e 5d 2f 0a 3d
       0.09627877 0.06093104 0.17837834 0.033736575
000080 f6 22 b3 3d de a7 19 be 97 d0 0e be b7 ea 3a be
       0.08746903 -0.15005443 -0.13946758 -0.18253599
000090 52 a9 d8 3c 31 58 a1 bd 92 53 de 3d b0 a5 6b 3c
       0.026447926 -0.07878149 0.108557835 0.014382765
0000a0 c0 21 b4 bb d8 50 07 be 7f 4b 53 3e f0 f7 61 3d
       -0.0054971874 -0.13214433 0.20634268 0.055168092
0000b0 a4 8c 11 be ea ef 36 3e f6 b4 1e bd 25 7b 4d bd
       -0.14213806 0.17864957 -0.038746797 -0.050166268
0000c0 0e 1f 3c 3c 2e 1b 18 be 86 5a 7f 3e 12 fd 64 bc
       0.011482013 -0.14854118 0.24936876 -0.013976352
0000d0 df eb 50 3e 28 27 91 be f8 1a 10 be 09 a0 60 bd
       0.20402478 -0.28350186 -0.14072788 -0.05484012
0000e0 5a 49 32 3e 18 54 31 3a bb d8 cb bc 68 df 09 be
       0.17410794 0.0006764545 -0.024883619 -0.13464129
0000f0 55 6d 3f bc 67 d1 0e be 45 9d e5 3d 5e 07 32 bd
       -0.011683782 -0.13947068 0.112116374 -0.043464057
000100 7b 4b 18 be c6 91 df 3d 30 1f bc 3c 1d 90 eb 3d
       -0.14872544 0.10916476 0.02296409 0.11502097
000110 2e b4 97 bd d6 32 6c bd a7 6b 2c be 8a ac 2a bd
       -0.074074134 -0.05766567 -0.16837941 -0.041668452
000120 13 c4 a8 bd 48 7e b6 3c 18 14 5b 3d 27 20 34 bd
       -0.08240523 0.022277012 0.05348596 -0.043975975
000130 37 38 77 3d 01 c9 05 be ee 53 c4 bd 64 9a 59 3e
       0.060356345 -0.13064958 -0.09586321 0.21250302
000140 27 43 1c bc de 00 d5 bd 08 cb f1 3c 41 3f 9a 3c
       -0.009537495 -0.10400556 0.029515758 0.01882899
000150 63 a1 0c 3e 1c f8 2d 3e b2 a7 f4 bc d6 83 fe bc
       0.13733439 0.16989177 -0.02986512 -0.031068724
000160 69 45 20 bd de bb 15 3e 8d f9 61 3e 00 74 72 39
       -0.039128695 0.14622447 0.22067852 0.00023122132
000170 c0 0c 8f 3d 0e 99 e1 3d b9 51 93 bc ac 05 89 be
       0.06984854 0.11015521 -0.017983304 -0.2676214
000180 28 a0 a8 3d 8c 79 0e be 4d e7 27 3e 58 4b 54 3d
       0.082336724 -0.13913554 0.16396828 0.051829666
000190 52 58 48 3b a0 9c 5d 3d be d7 bc 3d e1 0d 00 be
       0.003057022 0.054104447 0.09220837 -0.12505294
0001a0 03 ac f6 3d ef 5d dd bc c5 47 e2 3d 73 28 fe 3d
       0.120445274 -0.02702233 0.11048845 0.12410059
0001b0 01 16 ce 3d 27 e8 9c bd 32 32 e0 3d 93 b5 bd 3d
       0.10062791 -0.07661467 0.10947074 0.09263148
0001c0 50 cd 47 3c dd 5e 15 be 20 72 cc 3b ca 37 d7 bb
       0.012194946 -0.14586969 0.0062391907 -0.00656793
0001d0 f4 98 0a be 86 a0 12 3e 0e ea 00 be ba 88 05 3e
       -0.1353491 0.14319047 -0.12589285 0.13040438
0001e0 d5 74 16 be 23 a6 5e be 9c d6 52 bb 31 93 05 be
       -0.14693005 -0.21743064 -0.0032171374 -0.1304443
0001f0 03 db 83 3d dc 05 38 b7 d6 93 f3 3d 1f fe 79 3d
       0.064382575 -1.0968619e-05 0.11893432 0.061033364
000200 6e 3d e2 3d 85 06 a8 3d 59 b3 8e bd 60 28 99 bd
       0.11046873 0.082043685 -0.069678016 -0.07478404
000210 3c bb 00 be a8 5b 6f 3e fd b0 0d be 94 14 f6 bc
       -0.12571424 0.23374808 -0.13837047 -0.03003911
000220 3e 68 19 be 8c c3 0a 3d ec 07 16 3e f8 4c e9 3c
       -0.14981171 0.033877894 0.1465146 0.028479084
000230 3f ea 81 be a6 0f 2e be 72 3b f2 3d 68 b8 fc 3d
       -0.25374028 -0.16998157 0.118277445 0.1233986
000240 a8 5f 07 be 90 90 b5 3c 00 15 f6 bc 19 1e 3a 3d
       -0.13220084 0.02216366 -0.03003931 0.04543886
000250 de 70 36 bd 8a f4 71 3e 9b 00 25 bb 53 26 6b be
       -0.044541232 0.2362844 -0.0025177363 -0.22963838
000260 f3 5d 46 3e 00 7a 5a 3b 10 9b 87 3e 38 80 d2 3d
       0.19371776 0.0033336878 0.2648549 0.10278362
000270 43 d4 8e 3e 4a 68 c9 3c f8 ce 81 3c 86 c2 36 3e
       0.27896318 0.024585862 0.01584576 0.17847642
000280 d8 c3 d1 bc ae 61 a2 3d ad bb fa 3d bd fc 03 be
       -0.02560608 0.07928787 0.122428276 -0.12889381
000290 bd 9d 17 be a4 cc 91 3e 9e 58 f9 bd a6 ba ba bd
       -0.14806266 0.2847644 -0.121751055 -0.091176316
0002a0 42 dd 98 3d 0d 22 75 3c d5 5f 79 bb f1 9d 47 be
       0.074640766 0.014961732 -0.0038051505 -0.19493844
0002b0 d3 cc 6d 3e 2d 2e 7a 3e 7c 66 a0 bc fd 6b a5 3d
       0.23222665 0.24431677 -0.019580118 0.08077238
0002c0 00 f4 c5 b9 63 ff 38 3e fd f7 1a bd 9e 95 3b 3e
       -0.00037756562 0.18066172 -0.037834156 0.18318793
0002d0 a0 09 ef bd d4 c3 a1 3d 96 56 87 be 1d 45 5c bd
       -0.11671758 0.078986794 -0.26433247 -0.05377685
0002e0 a4 ff d3 bd f1 ca 07 be 42 68 91 bc c9 ac 4c 3d
       -0.10351494 -0.1326101 -0.01774991 0.04996947
0002f0 4b f6 72 3e 34 39 08 3e 91 11 17 be 6e f2 1e bd
       0.23726766 0.13303071 -0.14752795 -0.038805418
000300 f8 80 d3 3c dd 98 08 be 54 8d 09 be e6 2c 9e 3d
       0.025818333 -0.13339563 -0.13432819 0.077234074
000310 d8 c4 64 be d4 5f 6c 3e 86 e0 ad 3e b6 b3 ec bd
       -0.22340715 0.2308343 0.3396036 -0.11557715
000320 cf 44 0b 3e 26 8e 82 be 51 8b d9 bd f2 00 fe 3c
       0.13600467 -0.25499076 -0.106222756 0.03100631
000330 f4 81 a1 be 81 6e 10 3e 6d 9d df bd d5 6f ae 3a
       -0.3154446 0.14104654 -0.109186985 0.0013308475
000340 22 ab 1b 3d 5f 03 30 3e 51 ad 89 3e 2e 1c 17 bd
       0.038005 0.17188786 0.26890042 -0.03689211
000350 00 7b 0e 3e 22 bd 13 bc 16 1d a1 bd 55 99 14 bd
       0.13914108 -0.009017261 -0.07866876 -0.03627904
000360 7f 4f 7e bd 7b 5d 14 3e 11 f4 fa 3d a0 fe 8c 3b
       -0.062087532 0.14488785 0.12253583 0.0043028146
000370 7c 2c 4c be 00 27 de 3b 24 8c 7e bc d4 c9 1b bd
       -0.19938844 0.0067795515 -0.015536342 -0.038034275
000380 51 e8 02 3e 12 c4 87 bd 00 7d 84 ba 6c 68 35 3e
       0.12783934 -0.06629194 -0.0010108054 0.17715615
000390 35 6e b1 3d f1 4f 24 bd 91 c9 79 bd 93 1c 44 3e
       0.086635984 -0.0401153 -0.060983244 0.19151525
0003a0 65 99 68 3c f2 03 c4 bd c2 2e 7b bd 62 97 6e bd
       0.014196728 -0.09571065 -0.06132389 -0.05824984
0003b0 d8 2a 45 3c c6 57 10 be d7 81 c0 bd 68 af 9b bd
       0.0120341405 -0.14095983 -0.09399765 -0.076018155
0003c0 cc 96 53 3d ba b1 74 bd 05 08 d8 bd 10 e6 34 bd
       0.051657483 -0.059739806 -0.105484046 -0.044164717
0003d0 26 e1 6a 3d 4c 35 eb bd f4 0c 51 be 68 36 74 bd
       0.057343625 -0.11484775 -0.20415097 -0.0596222
0003e0 96 4d a5 be ba 1d b4 3d 8a e6 1f 3e c2 58 03 be
       -0.32285756 0.087947324 0.15615287 -0.12826827
0003f0 b1 60 1e be 8c ce 24 be 09 5b 9a 3e 20 a9 01 be
       -0.15466572 -0.16094416 0.3014758 -0.12662172

fc2.weight f4 [20, 512]
000000 95 ce 8d bd 6b 96 09 3f 1a 49 cb bc 76 52 0e be
       -0.06924168 0.53745145 -0.024815131 -0.13898644
000010 96 82 82 3d a1 be 30 3c 66 cf 60 bc 35 b5 b6 3c
       0.063725635 0.010787637 -0.013721323 0.022303203
000020 3f 18 30 3d f0 d9 0b bf 13 82 28 bd 0f 5e 5a 3d
       0.042991873 -0.5462942 -0.041139673 0.053312358
000030 f9 89 c2 bd 40 7b 13 bb aa bf 85 be 68 71 24 bf
       -0.094989724 -0.0022503883 -0.2612279 -0.64235544
000040 51 9a e7 be b7 d1 ae 3d 65 34 23 bf 66 9e 81 3c
       -0.45234922 0.08536094 -0.6375182 0.0158226
000050 3e ba 89 3d 14 9d 54 3c d7 a8 33 bd 6c 74 19 bc
       0.06724976 0.0129769035 -0.04386219 -0.009366136
000060 d9 03 29 bd 00 b7 6b b9 bb 1b 75 be 7f 61 ff be
       -0.041263435 -0.00022479519 -0.2393636 -0.4987907
000070 c0 33 2b bd 00 8a 34 bd a0 83 85 3e 90 7b 85 3e
       -0.0417974 -0.04407692 0.26076984 0.26070833
000080 61 d4 dc bc 2b 81 9a be d7 48 34 3d 10 c8 2a bf
       -0.026956739 -0.30176672 0.044014778 -0.6671152
000090 60 4a 7c 3e ed c7 19 3d e3 f6 b1 3e c0 a7 4d ba
       0.24637747 0.03754418 0.34758672 -0.0007845126
0000a0 98 de 3f bc 06 b2 e2 3c c3 92 b7 ba f2 20 c8 3c
       -0.011710785 0.027672779 -0.001400553 0.024429772
0000b0 51 38 ee be 64 f2 68 bd 9c 9a 8a be d6 e9 3c 3c
       -0.4652734 -0.056871787 -0.27071083 0.01153036
0000c0 e2 3d 3a 3e 20 61 d1 3a f4 55 9a be 50 be ab bc
       0.18187669 0.001597438 -0.30143702 -0.020964772
0000d0 d0 06 3d 3d 9f cb 83 be 87 ee db bc 7d 0b 37 bd
       0.046149075 -0.25741288 -0.026847137 -0.04468869
0000e0 53 95 e5 3d 44 14 6d bc 44 7e 88 3e 16 9f 14 3b
       0.11210122 -0.014470164 0.26658833 0.002267783
0000f0 5f 36 27 3d e8 b4 c9 3b e0 81 d1 bd d6 ee e8 3c
       0.040823337 0.006155599 -0.1022985 0.028434198
000100 7a b1 d3 3c 3b 6c 42 bf 8a 6e c0 bc e8 80 4a bf
       0.025841463 -0.75946397 -0.02349021 -0.79102945
000110 25 a8 e6 bc d3 8b 2d 3d 53 ef c7 3e 21 c5 0f 3d
       -0.02815635 0.042369675 0.39049777 0.035100106
000120 66 6d 58 3d 00 6e d2 bb d0 01 37 bb 52 74 4f bd
       0.052838705 -0.0064218044 -0.0027924664 -0.05064804
000130 b5 2b 0c be e6 c6 e0 3c d1 f7 c7 3d d0 b6 0f be
       -0.13688548 0.027438592 0.09764064 -0.14034581
000140 35 d4 03 3f 05 ff 38 3e bc c9 80 3c 11 67 64 bd
       0.5149568 0.18066032 0.015721194 -0.055762354
000150 b1 b8 1c 3d 85 a3 12 3f 76 12 dc 3e 28 6d 3e 3e
       0.038262073 0.5728076 0.42982835 0.18596327
000160 9e 3d ed bd db c3 46 bd a5 84 89 3e 70 d5 f8 bb
       -0.11584018 -0.048526626 0.26859012 -0.007593803
000170 ee ce f1 3c d0 ef da 3b 62 b5 a2 39 82 3f 2d 3e
       0.029517617 0.00668142 0.0003103419 0.16918758
000180 e5 00 82 3c b7 cb d6 bb f6 f9 de 3d 60 52 13 bf
       0.015869567 -0.0065550464 0.1088752 -0.5754757
000190 f6 3a aa 3c f2 be 13 bd 20 c8 9f ba 1a b6 bb bc
       0.020780068 -0.03607077 -0.0012190379 -0.022913981
0001a0 90 79 b0 bd 6a 4d 7e 3c 14 7f 62 3e 8b 5d 4f be
       -0.08616936 0.015521387 0.22118789 -0.20250528
0001b0 78 b7 15 3e 3a 2c 03 bd a6 bb b1 be 49 ba 7f bc
       0.14620769 -0.0320246 -0.34713477 -0.015608379
0001c0 59 43 03 3d 4a e5 9a 3e f5 d2 01 3d 1e 8a c6 3d
       0.03204665 0.3025306 0.031695325 0.096943125
0001d0 64 8f e7 bb 10 da b1 bd 18 ec a4 bb 50 7e 66 3e
       -0.007066654 -0.0868417 -0.0050330274 0.22509122
0001e0 f9 7e ea be e3 37 97 be 28 52 c4 be 1d 19 e1 3e
       -0.45799997 -0.29534826 -0.3834393 0.43964472
0001f0 88 12 06 be f8 d0 a8 3d b7 0a 5b be 10 c7 38 bf
       -0.13093007 0.082429826 -0.21390806 -0.72178745
000200 40 10 33 bb 8a d9 c5 3d 69 35 23 bd c9 6d b8 bc
       -0.0027322918 0.09660633 -0.039845858 -0.022513287
000210 cd c2 b1 3e fe f0 93 3d f4 1a 20 3c 45 02 b6 bc
       0.34718934 0.072237 0.009772051 -0.02221788
000220 31 f0 72 3d 68 86 fd bb 2d 37 34 bc 72 d0 8e bc
       0.059311096 -0.0077369697 -0.010999483 -0.017433379
000230 fa dc 3e be a3 31 bd 3e 6b 51 28 3d b2 3e a1 bd
       -0.18638983 0.36951932 0.04109327 -0.07873286
000240 00 e7 83 39 04 fd 6f 3c da 22 99 bc 24 00 4a bf
       0.00025158376 0.014647726 -0.018693376 -0.78906465
000250 e7 32 ae bc 71 12 54 bf 78 77 31 3e e2 06 49 3e
       -0.021264507 -0.8284064 0.1733073 0.19631532
000260 dd 9c 18 3c 96 21 17 bd 34 c2 2d bf f0 26 46 3e
       0.009314743 -0.036897264 -0.67874455 0.19350791
000270 b4 84 5b be 45 c2 64 be 66 37 8b bc 85 3e eb 3d
       -0.21437341 -0.22339733 -0.01699419 0.11486534
000280 4b 97 02 3d ce 96 24 3e c9 74 a8 be 12 31 99 bc
       0.031882565 0.16073152 -0.329016 -0.018700156
000290 00 7b 5f 39 6c ca 54 bf 94 af 05 bd b2 66 cd 3c
       0.00021312758 -0.8312137 -0.032638147 0.025073383
0002a0 08 5a 45 3c 7d d8 1e 3c f1 63 8e be 38 6f 93 3c
       0.012045391 0.0096951695 -0.27810624 0.01799737
0002b0 88 d7 24 be 41 ab 15 bf 76 59 65 3d 19 4c 9c bd
       -0.16097844 -0.5846444 0.05599352 -0.07631702
0002c0 42 07 91 3c cc a3 67 bf ee 3c 39 3e 87 93 3e 3d
       0.017703656 -0.9048431 0.18089649 0.04652741
0002d0 85 01 25 3e a0 48 8a 3c 8b f0 ad 3d f9 f4 3b 3e
       0.16113861 0.016880333 0.084931456 0.18355168
0002e0 1b 29 91 bc 1f 69 21 bd ab 29 66 3d 62 8b f5 be
       -0.017719796 -0.039406892 0.05619208 -0.47957903
0002f0 47 5e a7 3d 16 7e 29 be 63 26 8d 3c ec 42 09 bd
       0.08172279 -0.16552004 0.017230218 -0.033511087
000300 7b 33 2b 3d 12 85 88 3c 5c ba 71 3c 94 22 c5 3e
       0.041797142 0.016665015 0.014753904 0.38502944
000310 88 77 9c 3e 17 5d 01 bf 33 24 58 be a0 3a ec ba
       0.30559945 -0.5053267 -0.21107559 -0.0018022843
000320 22 75 f3 bc a5 b2 3d 3e 56 6b 3a bf f9 3f 85 3d
       -0.02971894 0.18525179 -0.7282003 0.065063424
000330 8d 64 82 be a6 2b 4a 3d 64 79 29 bc 8a a1 6a bc
       -0.2546734 0.049358033 -0.010343883 -0.0143207405
000340 36 d2 b6 be 79 bf 73 3e ed 48 e6 be 48 39 72 3c
       -0.35707253 0.2380351 -0.44977513 0.014784165
000350 88 67 67 bc 05 48 51 3d 48 51 23 3c 04 95 d3 be
       -0.014123805 0.051094074 0.009968109 -0.41324627
000360 a5 36 ad be df 16 19 be 17 12 8a be 0f 8f 31 3d
       -0.33830753 -0.14950131 -0.26966926 0.043349322
000370 f0 55 3f 3c 3c 29 8f bc 88 a1 2d 3b c6 70 c8 3c
       0.011678204 -0.017475717 0.0026493985 0.024467837
000380 a0 99 13 3d 20 d5 fa ba da 99 2c bd 65 39 8c 3e
       0.03603518 -0.0019137003 -0.04213891 0.2738754
000390 49 f6 8e 3d 51 47 e0 3d ac cd 22 bf 96 cf 32 3d
       0.06980569 0.109511025 -0.6359508 0.043655
0003a0 40 bd 0b 3c dc 5f 79 3c 64 06 5f 3c f3 7d 90 bc
       0.008529007 0.015220609 0.0136123635 -0.017638182
0003b0 4e f4 a4 be a1 3c ec 3e 53 9b 26 3d 53 2c 78 3e
       -0.3221764 0.46140006 0.040675472 0.24235658
0003c0 37 2f 21 be 34 6e 7f 3c fd 55 27 3d 00 20 e7 bc
       -0.15740667 0.015590239 0.04085349 -0.028213501
0003d0 f7 e0 d4 3e 43 0a 10 3d c1 05 44 be 4a f8 04 3d
       0.41577885 0.035166036 -0.1914282 0.03246335
0003e0 2e 80 50 3d 7c aa 79 bf 0b 83 25 3e f0 e0 2c 3b
       0.05090349 -0.97525764 0.1616327 0.002637919
0003f0 7d bc d7 3c 51 ba 40 3c 37 69 a2 bd 13 4f 24 3d
       0.026334995 0.011763171 -0.079302244 0.040114474

fc2.bias f4 [20]
000000 74 61 a5 bc ca c6 2e 3d ef 35 f4 bd f7 38 e8 ba
       -0.02018807 0.04267005 -0.119243495 -0.0017717172
000010 32 69 9b bd e5 8a 5f 3d 99 74 f2 3c 78 54 aa 3c
       -0.07588424 0.05457582 0.029596614 0.020792231
000020 d1 43 26 3e 56 cc ed 3a 07 07 82 bb 0c a6 6e bd
       0.16236807 0.0018142562 -0.003968123 -0.058263823
000030 59 72 83 3d 14 ae 17 bd 79 cf a8 bd 8a ed c9 3d
       0.064182945 -0.03703125 -0.08242697 0.0985976
000040 b0 8e d0 3c 61 cc f2 3c 89 b2 b9 bd 5c 9e b9 38
       0.025458664 0.029638471 -0.09067256 8.850984e-05
